…
Number of images in x_valid 11011
Number of images in x_test 22022
Model: "functional_3"
__________________________________________________________________________________________________
Layer (type)                    Output Shape         Param #     Connected to                     
==================================================================================================
input_2 (InputLayer)            [(None, 50, 50, 1)]  0                                            
__________________________________________________________________________________________________
dropout_2 (Dropout)             (None, 50, 50, 1)    0           input_2[0][0]                    
__________________________________________________________________________________________________
conv1 (Conv2D)                  (None, 22, 22, 64)   3200        dropout_2[0][0]                  
__________________________________________________________________________________________________
bn_conv1 (BatchNormalization)   (None, 22, 22, 64)   256         conv1[0][0]                      
__________________________________________________________________________________________________
activation_19 (Activation)      (None, 22, 22, 64)   0           bn_conv1[0][0]                   
__________________________________________________________________________________________________
pool1_pad (ZeroPadding2D)       (None, 24, 24, 64)   0           activation_19[0][0]              
__________________________________________________________________________________________________
max_pooling2d_1 (MaxPooling2D)  (None, 11, 11, 64)   0           pool1_pad[0][0]                  
__________________________________________________________________________________________________
res2a_branch2a (Conv2D)         (None, 11, 11, 64)   4160        max_pooling2d_1[0][0]            
__________________________________________________________________________________________________
bn2a_branch2a (BatchNormalizati (None, 11, 11, 64)   256         res2a_branch2a[0][0]             
__________________________________________________________________________________________________
activation_20 (Activation)      (None, 11, 11, 64)   0           bn2a_branch2a[0][0]              
__________________________________________________________________________________________________
res2a_branch2b (Conv2D)         (None, 11, 11, 64)   36928       activation_20[0][0]              
__________________________________________________________________________________________________
bn2a_branch2b (BatchNormalizati (None, 11, 11, 64)   256         res2a_branch2b[0][0]             
__________________________________________________________________________________________________
activation_21 (Activation)      (None, 11, 11, 64)   0           bn2a_branch2b[0][0]              
__________________________________________________________________________________________________
res2a_branch2c (Conv2D)         (None, 11, 11, 256)  16640       activation_21[0][0]              
__________________________________________________________________________________________________
res2a_branch1 (Conv2D)          (None, 11, 11, 256)  16640       max_pooling2d_1[0][0]            
__________________________________________________________________________________________________
bn2a_branch2c (BatchNormalizati (None, 11, 11, 256)  1024        res2a_branch2c[0][0]             
__________________________________________________________________________________________________
bn2a_branch1 (BatchNormalizatio (None, 11, 11, 256)  1024        res2a_branch1[0][0]              
__________________________________________________________________________________________________
add_6 (Add)                     (None, 11, 11, 256)  0           bn2a_branch2c[0][0]              
                                                                 bn2a_branch1[0][0]               
__________________________________________________________________________________________________
activation_22 (Activation)      (None, 11, 11, 256)  0           add_6[0][0]                      
__________________________________________________________________________________________________
res2b_branch2a (Conv2D)         (None, 11, 11, 64)   16448       activation_22[0][0]              
__________________________________________________________________________________________________
bn2b_branch2a (BatchNormalizati (None, 11, 11, 64)   256         res2b_branch2a[0][0]             
__________________________________________________________________________________________________
activation_23 (Activation)      (None, 11, 11, 64)   0           bn2b_branch2a[0][0]              
__________________________________________________________________________________________________
res2b_branch2b (Conv2D)         (None, 11, 11, 64)   36928       activation_23[0][0]              
__________________________________________________________________________________________________
bn2b_branch2b (BatchNormalizati (None, 11, 11, 64)   256         res2b_branch2b[0][0]             
__________________________________________________________________________________________________
activation_24 (Activation)      (None, 11, 11, 64)   0           bn2b_branch2b[0][0]              
__________________________________________________________________________________________________
res2b_branch2c (Conv2D)         (None, 11, 11, 256)  16640       activation_24[0][0]              
__________________________________________________________________________________________________
bn2b_branch2c (BatchNormalizati (None, 11, 11, 256)  1024        res2b_branch2c[0][0]             
__________________________________________________________________________________________________
add_7 (Add)                     (None, 11, 11, 256)  0           bn2b_branch2c[0][0]              
                                                                 activation_22[0][0]              
__________________________________________________________________________________________________
activation_25 (Activation)      (None, 11, 11, 256)  0           add_7[0][0]                      
__________________________________________________________________________________________________
res2c_branch2a (Conv2D)         (None, 11, 11, 64)   16448       activation_25[0][0]              
__________________________________________________________________________________________________
bn2c_branch2a (BatchNormalizati (None, 11, 11, 64)   256         res2c_branch2a[0][0]             
__________________________________________________________________________________________________
activation_26 (Activation)      (None, 11, 11, 64)   0           bn2c_branch2a[0][0]              
__________________________________________________________________________________________________
res2c_branch2b (Conv2D)         (None, 11, 11, 64)   36928       activation_26[0][0]              
__________________________________________________________________________________________________
bn2c_branch2b (BatchNormalizati (None, 11, 11, 64)   256         res2c_branch2b[0][0]             
__________________________________________________________________________________________________
activation_27 (Activation)      (None, 11, 11, 64)   0           bn2c_branch2b[0][0]              
__________________________________________________________________________________________________
res2c_branch2c (Conv2D)         (None, 11, 11, 256)  16640       activation_27[0][0]              
__________________________________________________________________________________________________
bn2c_branch2c (BatchNormalizati (None, 11, 11, 256)  1024        res2c_branch2c[0][0]             
__________________________________________________________________________________________________
add_8 (Add)                     (None, 11, 11, 256)  0           bn2c_branch2c[0][0]              
                                                                 activation_25[0][0]              
__________________________________________________________________________________________________
activation_28 (Activation)      (None, 11, 11, 256)  0           add_8[0][0]                      
__________________________________________________________________________________________________
res3a_branch2a (Conv2D)         (None, 6, 6, 128)    32896       activation_28[0][0]              
__________________________________________________________________________________________________
bn3a_branch2a (BatchNormalizati (None, 6, 6, 128)    512         res3a_branch2a[0][0]             
__________________________________________________________________________________________________
activation_29 (Activation)      (None, 6, 6, 128)    0           bn3a_branch2a[0][0]              
__________________________________________________________________________________________________
res3a_branch2b (Conv2D)         (None, 6, 6, 128)    147584      activation_29[0][0]              
__________________________________________________________________________________________________
bn3a_branch2b (BatchNormalizati (None, 6, 6, 128)    512         res3a_branch2b[0][0]             
__________________________________________________________________________________________________
activation_30 (Activation)      (None, 6, 6, 128)    0           bn3a_branch2b[0][0]              
__________________________________________________________________________________________________
res3a_branch2c (Conv2D)         (None, 6, 6, 512)    66048       activation_30[0][0]              
__________________________________________________________________________________________________
res3a_branch1 (Conv2D)          (None, 6, 6, 512)    131584      activation_28[0][0]              
__________________________________________________________________________________________________
bn3a_branch2c (BatchNormalizati (None, 6, 6, 512)    2048        res3a_branch2c[0][0]             
__________________________________________________________________________________________________
bn3a_branch1 (BatchNormalizatio (None, 6, 6, 512)    2048        res3a_branch1[0][0]              
__________________________________________________________________________________________________
add_9 (Add)                     (None, 6, 6, 512)    0           bn3a_branch2c[0][0]              
                                                                 bn3a_branch1[0][0]               
__________________________________________________________________________________________________
activation_31 (Activation)      (None, 6, 6, 512)    0           add_9[0][0]                      
__________________________________________________________________________________________________
res3b_branch2a (Conv2D)         (None, 6, 6, 128)    65664       activation_31[0][0]              
__________________________________________________________________________________________________
bn3b_branch2a (BatchNormalizati (None, 6, 6, 128)    512         res3b_branch2a[0][0]             
__________________________________________________________________________________________________
activation_32 (Activation)      (None, 6, 6, 128)    0           bn3b_branch2a[0][0]              
__________________________________________________________________________________________________
res3b_branch2b (Conv2D)         (None, 6, 6, 128)    147584      activation_32[0][0]              
__________________________________________________________________________________________________
bn3b_branch2b (BatchNormalizati (None, 6, 6, 128)    512         res3b_branch2b[0][0]             
__________________________________________________________________________________________________
activation_33 (Activation)      (None, 6, 6, 128)    0           bn3b_branch2b[0][0]              
__________________________________________________________________________________________________
res3b_branch2c (Conv2D)         (None, 6, 6, 512)    66048       activation_33[0][0]              
__________________________________________________________________________________________________
bn3b_branch2c (BatchNormalizati (None, 6, 6, 512)    2048        res3b_branch2c[0][0]             
__________________________________________________________________________________________________
add_10 (Add)                    (None, 6, 6, 512)    0           bn3b_branch2c[0][0]              
                                                                 activation_31[0][0]              
__________________________________________________________________________________________________
activation_34 (Activation)      (None, 6, 6, 512)    0           add_10[0][0]                     
__________________________________________________________________________________________________
res3c_branch2a (Conv2D)         (None, 6, 6, 128)    65664       activation_34[0][0]              
__________________________________________________________________________________________________
bn3c_branch2a (BatchNormalizati (None, 6, 6, 128)    512         res3c_branch2a[0][0]             
__________________________________________________________________________________________________
activation_35 (Activation)      (None, 6, 6, 128)    0           bn3c_branch2a[0][0]              
__________________________________________________________________________________________________
res3c_branch2b (Conv2D)         (None, 6, 6, 128)    147584      activation_35[0][0]              
__________________________________________________________________________________________________
bn3c_branch2b (BatchNormalizati (None, 6, 6, 128)    512         res3c_branch2b[0][0]             
__________________________________________________________________________________________________
activation_36 (Activation)      (None, 6, 6, 128)    0           bn3c_branch2b[0][0]              
__________________________________________________________________________________________________
res3c_branch2c (Conv2D)         (None, 6, 6, 512)    66048       activation_36[0][0]              
__________________________________________________________________________________________________
bn3c_branch2c (BatchNormalizati (None, 6, 6, 512)    2048        res3c_branch2c[0][0]             
__________________________________________________________________________________________________
add_11 (Add)                    (None, 6, 6, 512)    0           bn3c_branch2c[0][0]              
                                                                 activation_34[0][0]              
__________________________________________________________________________________________________
activation_37 (Activation)      (None, 6, 6, 512)    0           add_11[0][0]                     
__________________________________________________________________________________________________
global_average_pooling2d_1 (Glo (None, 512)          0           activation_37[0][0]              
__________________________________________________________________________________________________
dropout_3 (Dropout)             (None, 512)          0           global_average_pooling2d_1[0][0] 
__________________________________________________________________________________________________
dense_4 (Dense)                 (None, 512)          262656      dropout_3[0][0]                  
__________________________________________________________________________________________________
dense_5 (Dense)                 (None, 512)          262656      dense_4[0][0]                    
__________________________________________________________________________________________________
dense_6 (Dense)                 (None, 512)          262656      dense_5[0][0]                    
__________________________________________________________________________________________________
dense_7 (Dense)                 (None, 215)          110295      dense_6[0][0]                    
==================================================================================================
Total params: 2,069,719
Trainable params: 2,061,143
Non-trainable params: 8,576
__________________________________________________________________________________________________
Epoch 1/128
2408/2408 [==============================] - 30s 12ms/step - loss: 3.1148 - accuracy: 0.2517 - val_loss: 2.8591 - val_accuracy: 0.2977
…
