…
Number of images in x_valid 11011
Number of images in x_test 22022
Model: "functional_1"
__________________________________________________________________________________________________
Layer (type)                    Output Shape         Param #     Connected to                     
==================================================================================================
input_1 (InputLayer)            [(None, 50, 50, 1)]  0                                            
__________________________________________________________________________________________________
dropout (Dropout)               (None, 50, 50, 1)    0           input_1[0][0]                    
__________________________________________________________________________________________________
conv1 (Conv2D)                  (None, 22, 22, 64)   3200        dropout[0][0]                    
__________________________________________________________________________________________________
bn_conv1 (BatchNormalization)   (None, 22, 22, 64)   256         conv1[0][0]                      
__________________________________________________________________________________________________
activation (Activation)         (None, 22, 22, 64)   0           bn_conv1[0][0]                   
__________________________________________________________________________________________________
pool1_pad (ZeroPadding2D)       (None, 24, 24, 64)   0           activation[0][0]                 
__________________________________________________________________________________________________
max_pooling2d (MaxPooling2D)    (None, 11, 11, 64)   0           pool1_pad[0][0]                  
__________________________________________________________________________________________________
res2a_branch2a (Conv2D)         (None, 11, 11, 64)   4160        max_pooling2d[0][0]              
__________________________________________________________________________________________________
bn2a_branch2a (BatchNormalizati (None, 11, 11, 64)   256         res2a_branch2a[0][0]             
__________________________________________________________________________________________________
activation_1 (Activation)       (None, 11, 11, 64)   0           bn2a_branch2a[0][0]              
__________________________________________________________________________________________________
res2a_branch2b (Conv2D)         (None, 11, 11, 64)   36928       activation_1[0][0]               
__________________________________________________________________________________________________
bn2a_branch2b (BatchNormalizati (None, 11, 11, 64)   256         res2a_branch2b[0][0]             
__________________________________________________________________________________________________
activation_2 (Activation)       (None, 11, 11, 64)   0           bn2a_branch2b[0][0]              
__________________________________________________________________________________________________
res2a_branch2c (Conv2D)         (None, 11, 11, 256)  16640       activation_2[0][0]               
__________________________________________________________________________________________________
res2a_branch1 (Conv2D)          (None, 11, 11, 256)  16640       max_pooling2d[0][0]              
__________________________________________________________________________________________________
bn2a_branch2c (BatchNormalizati (None, 11, 11, 256)  1024        res2a_branch2c[0][0]             
__________________________________________________________________________________________________
bn2a_branch1 (BatchNormalizatio (None, 11, 11, 256)  1024        res2a_branch1[0][0]              
__________________________________________________________________________________________________
add (Add)                       (None, 11, 11, 256)  0           bn2a_branch2c[0][0]              
                                                                 bn2a_branch1[0][0]               
__________________________________________________________________________________________________
activation_3 (Activation)       (None, 11, 11, 256)  0           add[0][0]                        
__________________________________________________________________________________________________
res2b_branch2a (Conv2D)         (None, 11, 11, 64)   16448       activation_3[0][0]               
__________________________________________________________________________________________________
bn2b_branch2a (BatchNormalizati (None, 11, 11, 64)   256         res2b_branch2a[0][0]             
__________________________________________________________________________________________________
activation_4 (Activation)       (None, 11, 11, 64)   0           bn2b_branch2a[0][0]              
__________________________________________________________________________________________________
res2b_branch2b (Conv2D)         (None, 11, 11, 64)   36928       activation_4[0][0]               
__________________________________________________________________________________________________
bn2b_branch2b (BatchNormalizati (None, 11, 11, 64)   256         res2b_branch2b[0][0]             
__________________________________________________________________________________________________
activation_5 (Activation)       (None, 11, 11, 64)   0           bn2b_branch2b[0][0]              
__________________________________________________________________________________________________
res2b_branch2c (Conv2D)         (None, 11, 11, 256)  16640       activation_5[0][0]               
__________________________________________________________________________________________________
bn2b_branch2c (BatchNormalizati (None, 11, 11, 256)  1024        res2b_branch2c[0][0]             
__________________________________________________________________________________________________
add_1 (Add)                     (None, 11, 11, 256)  0           bn2b_branch2c[0][0]              
                                                                 activation_3[0][0]               
__________________________________________________________________________________________________
activation_6 (Activation)       (None, 11, 11, 256)  0           add_1[0][0]                      
__________________________________________________________________________________________________
res2c_branch2a (Conv2D)         (None, 11, 11, 64)   16448       activation_6[0][0]               
__________________________________________________________________________________________________
bn2c_branch2a (BatchNormalizati (None, 11, 11, 64)   256         res2c_branch2a[0][0]             
__________________________________________________________________________________________________
activation_7 (Activation)       (None, 11, 11, 64)   0           bn2c_branch2a[0][0]              
__________________________________________________________________________________________________
res2c_branch2b (Conv2D)         (None, 11, 11, 64)   36928       activation_7[0][0]               
__________________________________________________________________________________________________
bn2c_branch2b (BatchNormalizati (None, 11, 11, 64)   256         res2c_branch2b[0][0]             
__________________________________________________________________________________________________
activation_8 (Activation)       (None, 11, 11, 64)   0           bn2c_branch2b[0][0]              
__________________________________________________________________________________________________
res2c_branch2c (Conv2D)         (None, 11, 11, 256)  16640       activation_8[0][0]               
__________________________________________________________________________________________________
bn2c_branch2c (BatchNormalizati (None, 11, 11, 256)  1024        res2c_branch2c[0][0]             
__________________________________________________________________________________________________
add_2 (Add)                     (None, 11, 11, 256)  0           bn2c_branch2c[0][0]              
                                                                 activation_6[0][0]               
__________________________________________________________________________________________________
activation_9 (Activation)       (None, 11, 11, 256)  0           add_2[0][0]                      
__________________________________________________________________________________________________
res3a_branch2a (Conv2D)         (None, 6, 6, 128)    32896       activation_9[0][0]               
__________________________________________________________________________________________________
bn3a_branch2a (BatchNormalizati (None, 6, 6, 128)    512         res3a_branch2a[0][0]             
__________________________________________________________________________________________________
activation_10 (Activation)      (None, 6, 6, 128)    0           bn3a_branch2a[0][0]              
__________________________________________________________________________________________________
res3a_branch2b (Conv2D)         (None, 6, 6, 128)    147584      activation_10[0][0]              
__________________________________________________________________________________________________
bn3a_branch2b (BatchNormalizati (None, 6, 6, 128)    512         res3a_branch2b[0][0]             
__________________________________________________________________________________________________
activation_11 (Activation)      (None, 6, 6, 128)    0           bn3a_branch2b[0][0]              
__________________________________________________________________________________________________
res3a_branch2c (Conv2D)         (None, 6, 6, 512)    66048       activation_11[0][0]              
__________________________________________________________________________________________________
res3a_branch1 (Conv2D)          (None, 6, 6, 512)    131584      activation_9[0][0]               
__________________________________________________________________________________________________
bn3a_branch2c (BatchNormalizati (None, 6, 6, 512)    2048        res3a_branch2c[0][0]             
__________________________________________________________________________________________________
bn3a_branch1 (BatchNormalizatio (None, 6, 6, 512)    2048        res3a_branch1[0][0]              
__________________________________________________________________________________________________
add_3 (Add)                     (None, 6, 6, 512)    0           bn3a_branch2c[0][0]              
                                                                 bn3a_branch1[0][0]               
__________________________________________________________________________________________________
activation_12 (Activation)      (None, 6, 6, 512)    0           add_3[0][0]                      
__________________________________________________________________________________________________
res3b_branch2a (Conv2D)         (None, 6, 6, 128)    65664       activation_12[0][0]              
__________________________________________________________________________________________________
bn3b_branch2a (BatchNormalizati (None, 6, 6, 128)    512         res3b_branch2a[0][0]             
__________________________________________________________________________________________________
activation_13 (Activation)      (None, 6, 6, 128)    0           bn3b_branch2a[0][0]              
__________________________________________________________________________________________________
res3b_branch2b (Conv2D)         (None, 6, 6, 128)    147584      activation_13[0][0]              
__________________________________________________________________________________________________
bn3b_branch2b (BatchNormalizati (None, 6, 6, 128)    512         res3b_branch2b[0][0]             
__________________________________________________________________________________________________
activation_14 (Activation)      (None, 6, 6, 128)    0           bn3b_branch2b[0][0]              
__________________________________________________________________________________________________
res3b_branch2c (Conv2D)         (None, 6, 6, 512)    66048       activation_14[0][0]              
__________________________________________________________________________________________________
bn3b_branch2c (BatchNormalizati (None, 6, 6, 512)    2048        res3b_branch2c[0][0]             
__________________________________________________________________________________________________
add_4 (Add)                     (None, 6, 6, 512)    0           bn3b_branch2c[0][0]              
                                                                 activation_12[0][0]              
__________________________________________________________________________________________________
activation_15 (Activation)      (None, 6, 6, 512)    0           add_4[0][0]                      
__________________________________________________________________________________________________
res3c_branch2a (Conv2D)         (None, 6, 6, 128)    65664       activation_15[0][0]              
__________________________________________________________________________________________________
bn3c_branch2a (BatchNormalizati (None, 6, 6, 128)    512         res3c_branch2a[0][0]             
__________________________________________________________________________________________________
activation_16 (Activation)      (None, 6, 6, 128)    0           bn3c_branch2a[0][0]              
__________________________________________________________________________________________________
res3c_branch2b (Conv2D)         (None, 6, 6, 128)    147584      activation_16[0][0]              
__________________________________________________________________________________________________
bn3c_branch2b (BatchNormalizati (None, 6, 6, 128)    512         res3c_branch2b[0][0]             
__________________________________________________________________________________________________
activation_17 (Activation)      (None, 6, 6, 128)    0           bn3c_branch2b[0][0]              
__________________________________________________________________________________________________
res3c_branch2c (Conv2D)         (None, 6, 6, 512)    66048       activation_17[0][0]              
__________________________________________________________________________________________________
bn3c_branch2c (BatchNormalizati (None, 6, 6, 512)    2048        res3c_branch2c[0][0]             
__________________________________________________________________________________________________
add_5 (Add)                     (None, 6, 6, 512)    0           bn3c_branch2c[0][0]              
                                                                 activation_15[0][0]              
__________________________________________________________________________________________________
activation_18 (Activation)      (None, 6, 6, 512)    0           add_5[0][0]                      
__________________________________________________________________________________________________
global_average_pooling2d (Globa (None, 512)          0           activation_18[0][0]              
__________________________________________________________________________________________________
dropout_1 (Dropout)             (None, 512)          0           global_average_pooling2d[0][0]   
__________________________________________________________________________________________________
dense (Dense)                   (None, 512)          262656      dropout_1[0][0]                  
__________________________________________________________________________________________________
dense_1 (Dense)                 (None, 512)          262656      dense[0][0]                      
__________________________________________________________________________________________________
dense_2 (Dense)                 (None, 512)          262656      dense_1[0][0]                    
__________________________________________________________________________________________________
dense_3 (Dense)                 (None, 215)          110295      dense_2[0][0]                    
==================================================================================================
Total params: 2,069,719
Trainable params: 2,061,143
Non-trainable params: 8,576
__________________________________________________________________________________________________
Epoch 1/128
2408/2408 [==============================] - 31s 13ms/step - loss: 3.1745 - accuracy: 0.2407 - val_loss: 2.9161 - val_accuracy: 0.2893
…
